bertopic_models/bertopic_model_eng/topic_embeddings.safetensors (safetensors, 41560 bytes, 1 tensors)

topic_embeddings f4 [27, 384]
-0.051728927 0.096194535 -0.09371834 -0.08659358 0.08420921 -0.040985253 -0.06515335 -0.049121417
0.045403637 -0.04417684 -0.08265581 0.008695858 0.17403863 -0.029587602 0.028738167 -0.04755112
-0.10655935 -0.021138057 -0.021953508 0.024079874 -0.06293401 -0.117717154 0.087141424 -0.038600124
0.042881127 -0.033559475 0.010601511 -0.09172945 0.010126517 -0.07801879 0.048038088 -0.09003509
-0.0059419856 -0.0025455419 0.049051356 0.08138743 0.122846104 -0.04050364 0.026672497 0.09919838
0.010462801 -0.10211527 0.027011216 0.050845902 0.005405775 -0.011895126 0.032246407 0.029547552
-0.24063072 -0.0229078 -0.050408863 0.004136321 -0.14302191 0.0012476363 0.097293265 -0.054820996
0.05522096 0.03011948 -0.021739822 0.004974477 -0.020792937 0.027971983 -0.0053755674 -0.05889137
-0.08649172 -0.033912946 0.06373773 0.0851916 -0.096668966 0.110629976 0.041813567 -0.033334814
-0.11159682 -0.057655916 0.05671233 -0.032500606 -0.011733861 0.15268412 0.017516633 -0.08082153
0.17926477 0.15951967 0.03279618 -0.008153878 0.09051691 -0.0818097 0.056843735 -0.0010633274
0.135751 0.0014035974 0.009362525 -0.08850729 0.19853172 0.009412553 0.09693235 0.13032684
0.08223626 0.020335771 -0.024860848 0.037429433 -0.109909974 0.044724178 -0.05259764 -0.032777715
-0.019885283 0.1431002 -0.091963485 -0.11140572 -0.11329989 -0.04647962 -0.048074257 -0.12549512
-0.04911685 -0.07866016 0.042178888 -0.0022593997 0.011838919 0.017895527 -0.14394079 -0.03783085
0.008554347 -0.08054329 0.07332271 0.040880002 0.13463195 0.069252685 -0.03142487 0.00024733308
0.05904305 -0.16578688 -0.060289122 0.017506504 -0.1414451 0.08174191 -0.0014748498 -0.041402765
-0.036334313 0.016994312 -0.13042061 0.1377753 -0.015236842 -0.04009567 0.018797131 0.04077884
-0.028659001 0.13972323 -0.022225153 0.024391612 0.08055136 0.028903231 0.124495514 -0.045629278
0.27142817 0.035928987 -0.00095442927 0.026377141 -0.0016818937 0.03280448 -0.11951277 -0.008180806
-0.103277214 -0.008438397 -0.06486372 0.0070186798 -0.059250165 -0.05021446 -0.07122639 -0.045522254
0.1669991 -0.03567031 -0.11561868 -0.0011591016 0.17344339 0.017298456 -0.012515916 -0.074752174
-0.070605256 -0.06554723 0.025787065 0.036502134 0.036201533 -0.07940652 0.06540233 0.031985417
-0.048749164 0.15598442 0.04575966 -0.016128775 -0.0127188545 -0.053605076 0.054629058 0.045373492
0.16376199 0.008936237 -0.10123971 0.0120653985 -0.102047466 0.08457782 0.012016392 0.04207511
-0.09022657 0.08576865 -0.13156858 0.08184997 -0.0037959896 -0.060227763 0.08843425 -0.02867388
-0.054876164 0.02070574 0.14385381 0.07150226 -0.089693375 -0.042242564 -0.0004504717 -0.054829147
-0.04410086 0.060586117 -0.23475619 0.019050874 0.047302607 -0.008215369 -0.000683958 -0.097399436
-0.009496271 -0.06853918 -0.066055015 0.042404924 -0.04539483 0.21087039 -0.093495935 -0.1665601
-0.05305308 0.027745804 0.016033448 -0.07793638 0.08415075 0.113060735 0.06463688 -0.14501086
0.085240416 -0.08485457 -0.1005458 0.019348644 0.042263452 -0.010279089 -0.07720129 0.030957043
-0.21100052 0.03429832 0.15247162 -0.22792704 -0.004775014 -0.05508592 0.08359667 0.0010674961
00000000: b6e1 53bd a401 c53d 67ef bfbd fa57 b1bd
00000010: e175 ac3d 27e0 27bd 1f6f 85bd 8a33 49bd
00000020: 2af9 393d c6f2 34bd 7347 a9bd 1279 0e3c
00000030: 2f37 323e b361 f2bc 4e6c eb3c f7c4 42bd
00000040: ca3b dabd b829 adbc d8d7 b3bc 2843 c53c
00000050: 8ce3 80bd b115 f1bd 3477 b23d 2a1b 1ebd
00000060: 1fa4 2f3d a975 09bd f6b1 2d3c a6dc bbbd
00000070: b1e9 253c 51c8 9fbd 96c3 443d 5164 b8bd
00000080: fdb4 c2bb 1bd3 26bb 13ea 483d 74ae a63d
00000090: bd96 fb3d 25e7 25bd 4880 da3c 8528 cb3d
000000a0: 2b6c 2b3c d021 d1bd a046 dd3c cb43 503d
000000b0: ed22 b13b c6e3 42bc cf14 043d b50d f23c
000000c0: e667 76be 23a9 bbbc 8679 4ebd fa89 873b
000000d0: 5674 12be ba87 a33a b141 c73d fb8b 60bd
000000e0: 602f 623d 21bd f63c b617 b2bc f000 a33b
000000f0: f355 aabc 8025 e53c 8725 b0bb 1438 71bd
00000100: 9222 b1bd 4de8 0abd ed88 823d ef78 ae3d
00000110: 61fa c5bd f891 e23d b444 2b3d 168a 08bd
00000120: e08c e4bd 9c28 6cbd 304b 683d 5b1f 05bd
00000130: 613f 40bc 3a59 1c3e 0b7f 8f3c c285 a5bd
00000140: 2f91 373e 2059 233e 4a55 063d d897 05bc
00000150: ee60 b93d d88b a7bd fad4 683d 595f 8bba
00000160: 4f02 0b3e eaf8 b73a 4765 193c 4f43 b5bd
00000170: e64b 4b3e 1c37 1a3c 7884 c63d 6674 053e
00000180: 7c6b a83d 3497 a63c faa8 cbbc 9b4f 193d
00000190: 7b18 e1bd b330 373d 9f70 57bd ed41 06bd
000001a0: 76e6 a2bc dc88 123e 5a57 bcbd af28 e4bd
000001b0: c609 e8bd 6a61 3ebd 83e9 44bd cb81 00be
000001c0: c02e 49bd 9418 a1bd c5c3 2c3d 7012 14bb
000001d0: 06f8 413c a499 923c 3765 13be 85f4 1abd
000001e0: 8827 0c3c e1f3 a4bd 382a 963d ca71 273d
000001f0: f5dc 093e 5ad4 8d3d 5db7 00bd 7cac 8139
00000200: 20d7 713d 09c4 29be baf1 76bd cd69 8f3c
00000210: fcd6 10be 4d68 a73d bf4f c1ba f295 29bd
00000220: 4ad3 14bd a837 8b3c fb8c 05be f814 0d3e
00000230: f3a3 79bc 5b3b 24bd 71fc 993c b707 273d
00000240: 48c6 eabc 9b13 0f3e 8611 b6bc ebd0 c73c
00000250: 1df8 a43d 78c6 ec3c 81f7 fe3d c4e5 3abd
00000260: a2f8 8a3e 462a 133d aa32 7aba e014 d83c
00000270: fd72 dcba fe5d 063d 1cc3 f4bd ca08 06bc
00000280: 0183 d3bd 3441 0abc 45d7 84bd f4fc e53b
00000290: 4db0 72bd adad 4dbd 24df 91bd 8b75 3abd
000002a0: d001 2b3e 081b 12bd 7dc9 ecbd ffec 97ba
000002b0: 259b 313e 7eb5 8d3c 8e0f 4dbc ab17 99bd
000002c0: 7d99 90bd a03d 86bd 653f d33c 4383 153d
000002d0: 0f48 143d e39f a2bd a8f1 853d 2403 033d
000002e0: 34ad 47bd 61ba 1f3e 7b6e 3b3d 7e20 84bc
000002f0: be62 50bc ff90 5bbd b8c2 5f3d 8ed9 393d
00000300: 39b1 273e 4b69 123c c456 cfbd f3ad 453c
00000310: 43fe d0bd 2337 ad3d 67e0 443c f356 2c3d
00000320: b5c8 b8bd 79a7 af3d eab9 06be f5a0 a73d
00000330: 23c6 78bb 63b1 76bd 041d b53d 7ce5 eabc
00000340: d4c5 60bd 169f a93c 6a4e 133e c76f 923d
00000350: 29b1 b7bd 8a06 2dbd 4a2d ecb9 8794 60bd
00000360: 1aa3 34bd 2629 783d ed63 70be 9410 9c3c
00000370: 61c0 413d c199 06bc a54b 33ba 5b79 c7bd
00000380: 3f96 1bbc 455e 8cbd da47 87bd c9b0 2d3d
00000390: eeef 39bd 68ee 573e cc7a bfbd bb8e 2abe
000003a0: 304e 59bd 2b4b e33c 9458 833c 1c9d 9fbd
000003b0: 3a57 ac3d 638c e73d 5760 843d ba7d 14be
000003c0: 8792 ae3d 3cc8 adbd f5ea cdbd 0c81 9e3c
000003d0: 711c 2d3d a069 28bc b61b 9ebd a099 fd3c
000003e0: 8510 58be 657c 0c3d 8521 1c3e b565 69be
000003f0: b877 9cbb c6a1 61bd bb34 ab3d 3aeb 8b3a
