bertopic_models/bertopic_model_ukr/topic_embeddings.safetensors (safetensors, 23128 bytes, 1 tensors)

topic_embeddings f4 [15, 384]
-0.071103364 0.14180654 -0.14897932 -0.08364092 0.10831884 -0.010635609 0.007477002 -0.00861486
0.035592794 -0.011579945 0.01336556 0.092049114 0.17230459 -0.06296376 -0.018801367 -0.082784995
-0.088067815 0.011145863 -0.06678636 0.0111804 -0.058770873 -0.15506281 0.11107333 0.028298661
0.11948583 -0.07513341 -0.0176487 -0.031840958 -0.04143462 -0.07160268 -0.0022874442 -0.11832292
0.025382461 0.015585222 0.067222506 0.019434664 0.14401503 0.011696733 0.014560684 0.08785334
-0.028415618 -0.08406995 -0.0024975112 0.107710205 0.05395618 0.037303295 0.039663244 0.012987837
-0.1746934 -0.019781396 0.009484819 -0.0027717291 -0.1169505 0.060828082 0.046225164 -0.21604244
0.08961487 0.05806352 -0.03841713 0.06681912 -0.025180211 -0.013844249 -0.056009553 -0.026516264
-0.1205314 -0.04807839 0.04951761 0.0034122032 0.018196879 0.15118739 0.058334682 -0.04446736
-0.10800629 -0.05148398 0.0013120474 -0.036625564 -0.041465886 0.18246241 0.039842043 -0.1109781
0.19209856 0.13624753 -0.018806024 -0.005466647 0.0091737965 -0.052498706 0.08923472 0.11133204
0.152823 -0.030619454 0.010817886 -0.027102608 0.23683761 -0.013358472 0.11417276 0.07102946
0.06820409 0.05194954 0.047720887 0.049757466 -0.03574025 -0.05201572 -0.032361757 -0.07443913
-0.06616613 0.0912729 -0.06963366 -0.13272868 -0.103707924 -0.075619906 -0.061588153 -0.06912312
-0.003916674 -0.030416986 0.008762515 0.06730907 -0.044251624 0.018426264 -0.21718235 0.041819647
-0.00028058045 -0.1920264 0.0649918 0.026043033 0.10564953 0.00914784 -0.056234866 -0.0033090445
0.019477323 -0.12978663 -0.05327044 0.0007484997 -0.14314196 0.020209586 -0.02329339 -0.028760806
0.004653264 0.081482984 -0.09255647 0.048307505 0.0037237909 0.005460934 0.01266607 0.064815044
0.00228581 0.15686083 -0.000990206 -0.014107178 0.105811015 0.05097452 0.086720124 -0.012908109
0.24774179 0.07446023 -0.012167271 0.052829858 0.03550544 0.05739014 -0.051217686 -0.015437832
-0.055810954 -0.003398612 -0.018164193 0.019621888 -0.05468324 0.0067532584 -0.088623114 -0.012341035
0.13052294 0.0008817443 -0.11185341 -0.029965065 0.13975398 -0.024099398 -0.06107422 -0.07302691
-0.0720597 -0.026901176 -0.011020065 0.06330443 -0.013305401 -0.040432908 0.044657048 0.1098686
-0.09340673 0.120098986 0.039185956 -0.050876953 -0.0070800637 -0.039335623 -0.0070464597 0.049328186
0.19115774 -0.019883417 -0.092083745 -0.0009171866 -0.09055817 0.08732904 0.023867624 0.006696413
-0.199515 0.07794329 -0.16280138 0.03064772 -0.01144887 0.007845021 0.02109173 -0.12996566
-0.049853947 0.04065583 0.09970818 0.07771278 -0.024311995 0.024488239 0.040950097 -0.04239764
-0.1618955 0.07627584 -0.18759112 0.07693246 0.019915871 -0.016215729 -0.036809374 -0.16671106
-0.01717701 -0.014911293 -0.076511666 -0.027944975 -0.032787196 0.14522901 -0.113090985 -0.13438414
-0.1047765 0.0631298 -0.06350262 -0.14089273 0.05719003 0.12456607 0.009563557 -0.15187368
0.086324245 -0.06461109 -0.1448765 0.014192424 0.06353587 -0.051467128 -0.053599283 0.0912268
-0.118127525 0.100344814 0.10245249 -0.17796646 -0.0010589105 -0.023651173 0.07232155 0.0050560995
00000000: a49e 91bd bc35 113e 098e 18be ee4b abbd
00000010: 45d6 dd3d fa40 2ebc a401 f53b 5725 0dbc
00000020: c0c9 113d cfb9 3dbc 39fb 5a3c 3f84 bc3d
00000030: 9d70 303e 25f3 80bd 5305 9abc 2e8b a9bd
00000040: e65c b4bd 239d 363c 4ac7 88bd ff2d 373c
00000050: bab9 70bd c9c8 1ebe 6a7a e33d 98d2 e73c
00000060: fdb4 f43d 8cdf 99bd 0294 90bc aa6b 02bd
00000070: 59b7 29bd 6da4 92bd f2e8 15bb 4953 f2bd
00000080: e1ee cf3c 2959 7f3c f4ab 893d 7235 9f3c
00000090: ad78 133e a7a3 3f3c ef8f 6e3c 74ec b33d
000000a0: dfc7 e8bc de2c acbd 49ad 23bb 2b97 dc3d
000000b0: 2801 5d3d 57cb 183d ed75 223d f0ca 543c
000000c0: d4e2 32be 980c a2bc 3766 1b3c e6a5 35bb
000000d0: be83 efbd de26 793d 9956 3d3d 3b3a 5dbe
000000e0: 0088 b73d 03d4 6d3d 485b 1dbd 76d8 883d
000000f0: bb46 cebc fdd2 62bc 466a 65bd a338 d9bc
00000100: 2bd9 f6bd d9ed 44bd fad2 4a3d 459f 5f3b
00000110: 9f11 953c ded0 1a3e 59f0 6e3d 6823 36bd
00000120: 6732 ddbd dee0 52bd 01f9 ab3a b004 16bd
00000130: 22d8 29bd 6dd7 3a3e 6931 233d 7c48 e3bd
00000140: 7cb5 443e 7984 0b3e 170f 9abc 8f21 b3bb
00000150: b14d 163c e208 57bd b1c0 b63d 0d02 e43d
00000160: a27d 1c3e a6d5 fabc 813d 313c 4a06 debc
00000170: 8f85 723e 7edd 5abc 68d3 e93d e577 913d
00000180: 96ae 8b3d 0ac9 543d fa76 433d 7cce 4b3d
00000190: 5e64 12bd 700e 55bd c38d 04bd 8b73 98bd
000001a0: 1c82 87bd 49ed ba3d 189c 8ebd 07ea 07be
000001b0: d264 d4bd 9cde 9abd dc43 7cbd 6c90 8dbd
000001c0: 7157 80bb 0b2d f9bc a790 0f3c 56d9 893d
000001d0: 3141 35bd adf2 963c 0d65 5ebe 144b 2b3d
000001e0: df1a 93b9 92a2 44be 6c1a 853d 3358 d53c
000001f0: c85e d83d d2e0 153c 8856 66bd 8edc 58bb
00000200: e88e 9f3c c9e6 04be 1b32 5abd f736 443a
00000210: ce93 12be 938e a53c c8d1 bebc c89b ebbc
00000220: 687a 983b 8de0 a63d 3f8e bdbd 17de 453d
00000230: d80a 743b a2f1 b23b 5985 4f3c c0bd 843d
00000240: 87cd 153b 20a0 203e cdc9 81ba cb21 67bc
00000250: 72b3 d83d a9ca 503d 529a b13d 897c 53bc
00000260: 06b0 7d3e 9b7e 983d 3c59 47bc 1f64 583d
00000270: 276e 113d ec11 6b3d a3c9 51bd f6ee 7cbc
00000280: 079a 64bd 3fbb 5ebb 13cd 94bc 15be a03c
00000290: 88fb 5fbd 704a dd3b 0980 b5bd 0d32 4abc
000002a0: cea7 053e dc24 673a 6713 e5bd 4c79 f5bc
000002b0: ab1b 0f3e 1a6c c5bc f628 7abd 228f 95bd
000002c0: 0994 93bd db5f dcbc 818d 34bc c1a5 813d
000002d0: e6fe 59bc fa9c 25bd 4fea 363d ca02 e13d
000002e0: 074c bfbd 75f6 f53d 7481 203d 5a64 50bd
000002f0: e1ff e7bb 641e 21bd fde5 e6bb 5a0c 4a3d
00000300: dbbe 433e 8ce2 a2bc 6796 bcbd 5a6f 70ba
00000310: 9076 b9bd 91d9 b23d 0986 c33c 956d db3b
00000320: a94d 4cbe bba0 9f3d 68b5 26be ed10 fb3c
00000330: 0b94 3bbc 6788 003c 90c8 ac3c b815 05be
00000340: a733 4cbd ba86 263d cd33 cc3d e127 9f3d
00000350: f329 c7bc 8f9b c83c 4abb 273d 26a9 2dbd
00000360: efc7 25be 8236 9c3d e317 40be c48e 9d3d
00000370: 9c26 a33c d9d6 84bc 6dc5 16bd 4eb6 2abe
00000380: cdb6 8cbc 7f4e 74bc 26b2 9cbd dcec e4bc
00000390: de4b 06bd eab6 143e 3f9c e7bd ff9b 09be
000003a0: 1095 d6bd 324a 813d a90d 82bd 2f46 10be
000003b0: 1840 6a3d 7f1c ff3d 77b0 1c3c c684 1bbe
000003c0: c4ca b03d d252 84bd 815a 14be 5787 683c
000003d0: 181f 823d 32cf 52bd ec8a 5bbd 1ed5 ba3d
000003e0: d8ec f1bd 9581 cd3d 9cd2 d13d d73c 36be
000003f0: 24cb 8aba 1bc0 c1bc 521d 943d a3ad a53b
